best_snake_dqn_model.pth (torch, 694556 bytes, 8 tensors)

fc1.weight f4 [512, 15]
0	0xbf20d23e	-0.62820804
1	0xbf22e11d	-0.63624746
2	0xbef882ad	-0.48537198
3	0xbe57edad	-0.2108676
4	0x3e970ccd	0.29501954
5	0xbe8f8038	-0.2802751
6	0xbf03bf53	-0.5146381
7	0xbef46646	-0.47734278
8	0x3db2271d	0.086988665
9	0x3ec39eaf	0.38207003
10	0x3d59464a	0.05304555
11	0xbec3b5ba	-0.38224584
12	0x3d6d275d	0.057898868
13	0xbdf23599	-0.11826629
14	0x3e031d92	0.12804249
15	0xbdf2cced	-0.11855493
16	0xbe88affd	-0.26696768
17	0xbfe11e59	-1.7587386
18	0xbe2914eb	-0.16511886
19	0xbf9c4a25	-1.2210127
20	0x3f9d7fd3	1.2304634
21	0xbedb5a9c	-0.42842567
22	0x3e2e9ec5	0.17052753
23	0x3ec8c682	0.3921395
24	0xbf243c94	-0.64154935
25	0x3ecf5a33	0.40498504
26	0xbf85259d	-1.0402104
27	0x3fc24200	1.5176392
28	0x3fb80509	1.4376537
29	0x3e751dfe	0.23937222
30	0x3db41a76	0.087941095
31	0xbeff16f1	-0.4982219
32	0xc040bf89	-3.0116904
33	0xbff37305	-1.9019476
34	0x3f0c6a54	0.54849744
35	0x3f32a925	0.69789344
36	0x3f050983	0.5196764
37	0xbf9a8079	-1.2070457
38	0xbe448f8f	-0.19195388
39	0xbd82e27c	-0.06390855
40	0xbedf39f3	-0.435989
41	0xbe2369cf	-0.15958332
42	0x3d0aafa5	0.033858914
43	0xbf4e618f	-0.8061761
44	0xbc5b8410	-0.013398185
45	0xbe81e3ed	-0.25369206
46	0x3bc8c444	0.0061269123
47	0xbe511046	-0.20416364
48	0xbd8f8ee3	-0.07009675
49	0xbdfcb424	-0.123390466
50	0x3e7fbe54	0.24974948
51	0xbe859c7f	-0.2609596
52	0xbe66fbe1	-0.22557022
53	0xbe523f2e	-0.20531914
54	0x3ccc3c50	0.024931103
55	0x3dd7b86e	0.10533224
56	0x3dca2698	0.098706424
57	0x3caa2a97	0.020772262
58	0x3e840a93	0.25789317
59	0xbd180ed8	-0.03712353
60	0xbe56957a	-0.20955458
61	0xbdf11a0c	-0.11772546
62	0x3e8038b1	0.25043252
63	0x3d8e2c52	0.06942047
64	0x3eefc2f4	0.46828425
65	0xbe3df199	-0.18549193
66	0xbfcbcf8b	-1.5922712
67	0xbe2bd9c2	-0.16782287
68	0xbf50f0d8	-0.816175
69	0xbf81c10a	-1.0137036
70	0xbd2f3195	-0.042771894
71	0x3e4b5a24	0.19858605
72	0xbcac3d66	-0.02102537
73	0x3f53df0f	0.82762235
74	0xbdf21130	-0.118196845
75	0x3b759fa1	0.003747918
76	0xbf332065	-0.69971305
77	0x3ed8953f	0.42301366
78	0xbf81ba35	-1.0134951
79	0xbfeea3e5	-1.8643767
80	0x3f76cbeb	0.96404904
81	0x3dedb02d	0.116058685
82	0x3f326991	0.6969233
83	0xc03d3b69	-2.956751
84	0xbd6520b3	-0.055939388
85	0xbf7fa7b3	-0.99865264
86	0xbf06a4df	-0.52595323
87	0xbee46d3d	-0.44614592
88	0xbea927b6	-0.3303811
89	0xbda52d7e	-0.080653176
90	0xbe1be5a0	-0.15224314
91	0xbecaf4d9	-0.3963993
92	0x3db93c97	0.0904476
93	0xbed8e3e7	-0.42361376
94	0x3e40b5e2	0.18819383
95	0x3efd94b8	0.49527526
96	0xbf80adfc	-1.0053096
97	0x3d2307fb	0.039802533
98	0xbf7afde6	-0.9804367
99	0xbef710fd	-0.4825515
100	0xbd03b915	-0.03215893
101	0xbe969306	-0.29409045
102	0xbf1202be	-0.57035434
103	0xbf0967d5	-0.5367406
104	0xbd188854	-0.037239388
105	0xbdd7fa9e	-0.10545848
106	0xbd26fb12	-0.040766783
107	0xc11d8557	-9.845054
108	0xbf68fb5e	-0.91008556
109	0x3df8628f	0.121281736
110	0xbf6e0f79	-0.9299236
111	0x3fa465f6	1.2843616
112	0xbcf39f60	-0.029739082
113	0xbe49d853	-0.19711427
114	0x3e9a5cbc	0.30148876
115	0x3f5e479a	0.86828005
116	0x3f880574	1.0626664
117	0x3f9b54fa	1.2135308
118	0xbf237a95	-0.6385892
119	0xbe7f4042	-0.24926856
120	0xbec84c85	-0.3912088
121	0xbe247394	-0.16059715
122	0xbedb538f	-0.42837188
123	0x3e1ad857	0.1512159
124	0xc006aad1	-2.1041758
125	0xbf007ccb	-0.5019042
126	0x3f6d2be6	0.9264511
127	0xbebf2eaa	-0.3734029
128	0x3f5f6bfa	0.87274134
129	0x401434ec	2.31573
130	0xc02aefd7	-2.6708887
131	0xbfb37274	-1.4019303
132	0x3f9cc5ad	1.2247826
133	0xc02e0d99	-2.71958
134	0xbd65941c	-0.05604945
135	0x3e2d0b10	0.16898751
136	0xbd94a96c	-0.07258877
137	0xbde98d14	-0.11403862
138	0xbf81486a	-1.0100224
139	0xbee4d9f6	-0.4469754
140	0xbe775da9	-0.24156822
141	0xbf30f302	-0.691208
142	0xbea6cc42	-0.3257771
143	0xbfb9f70c	-1.4528518
144	0xbf3498ad	-0.70545465
145	0x3fe32225	1.7744795
146	0x3e2fa12c	0.17151326
147	0x3f58561b	0.84506387
148	0x3ed34a68	0.41267705
149	0x3c59a160	0.013283104
150	0xbd230f3f	-0.03980946
151	0xbe2a207c	-0.16613954
152	0xc0d5b492	-6.6782923
153	0xbd042f9c	-0.032271966
154	0xbceb92ae	-0.028756466
155	0x3e8652bd	0.26235
156	0xbfb718b3	-1.4304413
157	0xc0200c3a	-2.5007463
158	0xc01f4c7c	-2.4890432
159	0xc01a9a1f	-2.4156568
160	0x3faa853a	1.3321908
161	0xbe982fef	-0.2972407
162	0x3e7a6acc	0.24454802
163	0xbda37eca	-0.079831675
164	0x3d49fb10	0.049311697
165	0xbe8e133d	-0.27749053
166	0xbc581f46	-0.01319105
167	0x3e891992	0.2677732
168	0xbe1c651e	-0.15272948
169	0x3f3ed5d5	0.7454503
170	0x3f2f35b4	0.6844132
171	0x3efe891f	0.4971399
172	0x3fac305e	1.345226
173	0xbf2e0475	-0.6797555
174	0x3f1ffc09	0.6249395
175	0xbf6df8d8	-0.9295783
176	0xc11c9552	-9.786455
177	0x3f33497f	0.7003402
178	0xbf01ced2	-0.5070621
179	0xbe50e7a6	-0.20400867
180	0xbd29958e	-0.041402392
181	0xbc3f69a0	-0.011682898
182	0x3d9c0744	0.07618573
183	0xbddef4dc	-0.10886547
184	0x3f37d268	0.7180543
185	0x403eb029	2.979502
186	0x403761dd	2.865348
187	0x400d1c0a	2.2048364
188	0x3fb48472	1.4102919
189	0xc046ec9b	-3.1081913
190	0xbf187374	-0.5955117
191	0xbedcd6a9	-0.43132523
192	0xbf70b945	-0.940327
193	0x3e57e010	0.21081567
194	0xbd793134	-0.06083794
195	0xbe0f9ad8	-0.14023912
196	0xbd6c2924	-0.057656422
197	0xbca95529	-0.02067049
198	0xbe53efde	-0.20696971
199	0xbdc60680	-0.096692085
200	0xbde63b19	-0.11241741
201	0xbe68cb5a	-0.22733822
202	0x3e2de2b9	0.16981019
203	0x3e5115b8	0.20418441
204	0x3d8ba57c	0.06818673
205	0xbe44b17a	-0.19208327
206	0xbe846b0f	-0.2586293
207	0xbd19e4bb	-0.03757165
208	0x3da8f186	0.08249192
209	0xbe63d90a	-0.22250763
210	0xbeff54b7	-0.4986932
211	0xbf1fa6bc	-0.6236379
212	0xbf8cea6b	-1.1009039
213	0xbf88fe62	-1.0702631
214	0x3eea87fe	0.4580688
215	0xbd964ad9	-0.07338495
216	0xbf183a27	-0.59463733
217	0xbf7e817d	-0.99416333
218	0xbf1ea11d	-0.6196459
219	0xbf5eab64	-0.8698027
220	0x3de145bc	0.10999629
221	0xbf23418f	-0.6377191
222	0xbfec479c	-1.8459353
223	0x3f6c9ab2	0.92423546
224	0x3e1f0520	0.15529299
225	0xbcbf139a	-0.023324776
226	0x3de939c2	0.113879696
227	0xc0aaf6a9	-5.34261
228	0xbfbfad19	-1.49747
229	0xbf316c62	-0.69306004
230	0xbf3b2b4a	-0.7311293
231	0x3cfae4e4	0.030626722
232	0x3f2dda54	0.6791127
233	0xbf65748d	-0.8963097
234	0x3ef6f557	0.48234054
235	0x3ee0b59f	0.43888566
236	0xbf3c420f	-0.735383
237	0x3ea7acd4	0.32749045
238	0x3f2d12da	0.6760689
239	0x3e36a1b0	0.17835116
240	0xbf986539	-1.1905891
241	0x3d670809	0.056404147
242	0xc011e416	-2.2795463
243	0xbf1691b2	-0.58816063
244	0xbf7124e6	-0.9419693
245	0x3fa3983c	1.2780833
246	0xbd19e354	-0.037570313
247	0xbe1afb29	-0.15134872
248	0x3f76246c	0.96149325
249	0xbf7f191a	-0.99647677
250	0x3fa607ed	1.2971169
251	0x3e2a31d2	0.16620567
252	0x3f91b5f8	1.1383657
253	0xbf12a802	-0.5728761
254	0xbdca95e4	-0.098918706
255	0x3c4f2db1	0.012645171

fc1.bias f4 [512]
0	0xbe46628d	-0.19373532
1	0x3f7300c2	0.9492303
2	0xbf475e0a	-0.7787787
3	0xbe8d89e3	-0.27644262
4	0x408635e2	4.1940775
5	0xbfaa97cf	-1.3327578
6	0xbf942852	-1.1574805
7	0x3f864747	1.0490502
8	0x3e943dd6	0.28953427
9	0x402e084f	2.719257
10	0x3f9521bc	1.165092
11	0x4039bead	2.902263
12	0x402fde88	2.7479572
13	0xbe62e9c4	-0.22159487
14	0x3fb310be	1.3989484
15	0x3f61d390	0.88213444
16	0x3fe4b5bb	1.786796
17	0x3f9bdfc7	1.2177666
18	0x3e9bdfa2	0.30444056
19	0xc080bf5e	-4.0233603
20	0xbfacf6b2	-1.3512785
21	0x3eb1f292	0.3475538
22	0x3fcbb01c	1.5913119
23	0x3f724f51	0.9465228
24	0xbffc9329	-1.973241
25	0xbf9b2b80	-1.212265
26	0x3ff3f224	1.905827
27	0x3e8bc152	0.2729593
28	0x403baf83	2.9325874
29	0x3f8a069d	1.0783268
30	0x400874e6	2.132135
31	0xbe94786a	-0.2899812
32	0xc019d64e	-2.4037051
33	0x3fbeec59	1.4915878
34	0x3f9e063c	1.2345653
35	0xc01bfabb	-2.4371784
36	0xc052085b	-3.28176
37	0xc0942049	-4.628941
38	0x3f907903	1.128693
39	0xbfffe922	-1.9993021
40	0x40792a64	3.8932123
41	0xbd80f7ce	-0.06297265
42	0xbeb1e0d9	-0.34741858
43	0xbf7c45f4	-0.9854424
44	0x3fe8a32b	1.8174795
45	0x4002e1ce	2.045032
46	0xbde50c0a	-0.11183937
47	0x3f50a7fc	0.81506324
48	0x3fd0eae6	1.6321685
49	0x3f5a7769	0.85338455
50	0x3f09752b	0.5369441
51	0xbe0998f8	-0.13437259
52	0x3fac0211	1.3438131
53	0x3fdcf303	1.7261661
54	0xc05061f9	-3.2559798
55	0xbe40930d	-0.18806095
56	0xbe441dab	-0.19151942
57	0xbf8f2c6b	-1.118543
58	0x403c84e9	2.9456122
59	0x3ed929de	0.42414755
60	0x3fa2c5a2	1.2716563
61	0x3fa02611	1.2511617
62	0x3f5e0548	0.8672681
63	0xc07c3e62	-3.9413075
64	0xbe5b8b1f	-0.21439789
65	0x3da54695	0.08070103
66	0x3dfe4d98	0.124171436
67	0xc0014b6c	-2.0202284
68	0xbf3f5098	-0.7473235
69	0xbfd412de	-1.6568258
70	0x3fc2b505	1.5211493
71	0x3f449e8a	0.7680441
72	0x3fddc864	1.7326779
73	0xbfef6046	-1.8701255
74	0xbfeaaddf	-1.8334311
75	0xbdce1ec4	-0.10064462
76	0x404e7d95	3.226415
77	0x3f932555	1.1495768
78	0xbf5549eb	-0.83315915
79	0xc053bf22	-3.3085408
80	0x3fbaf31b	1.460544
81	0x3f2f9cb1	0.6859847
82	0xc0596977	-3.397062
83	0x3f978bdd	1.1839558
84	0xbf825b6c	-1.018415
85	0xc09fec74	-4.997614
86	0xc042be87	-3.0428789
87	0xbe1884d3	-0.14894418
88	0x3f7190f7	0.94361824
89	0xbf870317	-1.0547818
90	0x3f3be9af	0.7340345
91	0x3fa9f55a	1.3278
92	0x3f78a970	0.9713354
93	0x3fd3c479	1.6544334
94	0xbed8fbe8	-0.4237969
95	0x3f96d104	1.1782537
96	0xbe324e22	-0.17412618
97	0x3e3180d0	0.17334294
98	0x3ff8356c	1.9391303
99	0x3fd0ccee	1.631254
100	0x3ee068f6	0.4383008
101	0xbefce9a7	-0.49397013
102	0x3f9e1a06	1.2351692
103	0xc0014713	-2.019963
104	0x3f149d8c	0.580529
105	0x3ef7f616	0.48429936
106	0x3f81d8ae	1.014425
107	0xbdf0cd56	-0.11757915
108	0x3f8c13e8	1.0943575
109	0x403a46a8	2.9105625
110	0xc0b22616	-5.567149
111	0x3d144c43	0.03620554
112	0x40194431	2.394787
113	0x3fb37095	1.4018732
114	0xbf6faa3f	-0.9361915
115	0x3efc65bb	0.49296364
116	0x3f1f2a01	0.6217347
117	0xc02715ec	-2.610713
118	0x3f37ab71	0.71745974
119	0x4006fb0a	2.1090722
120	0x3ec1da7c	0.37862003
121	0x401c249c	2.4397345
122	0x3fe551c5	1.7915579
123	0x3edd9ac8	0.4328215
124	0x3f9ac68e	1.2091844
125	0xbd5d6434	-0.05405064
126	0x3e157aee	0.14597675
127	0x3e1689ed	0.14701052
128	0x401437d5	2.3159077
129	0x3fe43619	1.7829009
130	0x401186e8	2.273859
131	0x3fb15e03	1.3856815
132	0xc02e89e4	-2.7271662
133	0x401faa0d	2.494754
134	0x400ee743	2.232865
135	0x3f0905c5	0.5352443
136	0x3f2446ba	0.6417042
137	0x3fd30bea	1.6488011
138	0xbfa03e1c	-1.2518954
139	0x3fb85d47	1.4403466
140	0xbf158efa	-0.5842129
141	0xbe6b27a9	-0.22964348
142	0xbfb382bc	-1.4024272
143	0x3fbe3739	1.4860603
144	0x401b5762	2.4272084
145	0x3ed1932e	0.40932602
146	0xbfa64dc6	-1.2992485
147	0xc08d3c82	-4.413636
148	0xbe04c73d	-0.12966628
149	0xbf5714a5	-0.84015876
150	0xc062c3e7	-3.543207
151	0xbdd17cc1	-0.10228873
152	0xc082073f	-4.0633845
153	0x3fb11493	1.3834404
154	0xbe960106	-0.29297656
155	0xbf9ea4b5	-1.2394015
156	0x3f337153	0.70094794
157	0xbe844660	-0.25834942
158	0x3f881d0c	1.0633864
159	0xbe536397	-0.2064346
160	0x40142183	2.3145454
161	0xbbbf1d61	-0.0058323597
162	0x3f939e35	1.1532656
163	0xbea6ccd9	-0.3257816
164	0xc0963a74	-4.6946354
165	0xbcf2b930	-0.02962932
166	0xc066e199	-3.6075194
167	0x3fb34369	1.4004947
168	0xbf282f54	-0.65697217
169	0xbe834efa	-0.25646192
170	0x3fb87ff5	1.4414049
171	0xc0a65bc5	-5.1987023
172	0x3f509a65	0.8148559
173	0x3fc5f917	1.5466641
174	0x3fc88749	1.5666286
175	0xbfdf2d58	-1.7435713
176	0xbf990ede	-1.1957662
177	0x3e85bb41	0.26119426
178	0xbff4a948	-1.911416
179	0x400edc5d	2.2322
180	0xbfbf63e8	-1.4952364
181	0x3fb6b468	1.4273806
182	0x3fc394b8	1.527976
183	0xbf767cc0	-0.96284103
184	0x3fc6732c	1.5503898
185	0x409dbc67	4.9292483
186	0x4029ad09	2.6511862
187	0x3f0c00a6	0.5468849
188	0x3fcd36a2	1.6032298
189	0x3fb504cd	1.414209
190	0xc02ae225	-2.6700528
191	0x3f501b08	0.81291246
192	0xbfe14c6c	-1.7601447
193	0xc037b872	-2.8706326
194	0x3f14f8a6	0.5819191
195	0x3f3f74eb	0.7478778
196	0xbff42da9	-1.9076434
197	0xbe7448e5	-0.23855932
198	0xc004cda3	-2.075051
199	0x4008ca14	2.1373339
200	0xbea3c46c	-0.31985795
201	0x4031c750	2.77779
202	0x3f0f36f5	0.5594323
203	0x4008a1a4	2.1348658
204	0xc06b193a	-3.6734147
205	0x3f4657d6	0.77477777
206	0x3fec0cb2	1.8441374
207	0x3f8dfb31	1.1092283
208	0x3f50ef18	0.8161483
209	0xc0030739	-2.0473158
210	0x3fe2fe75	1.7733904
211	0x3f5028b3	0.813121
212	0xbf54990a	-0.8304602
213	0xbf016ac8	-0.5055356
214	0x4004a39a	2.0724854
215	0x3f91e584	1.1398168
216	0xbe4fbf3f	-0.20287798
217	0xbed8f922	-0.42377573
218	0xbffaeb29	-1.9603015
219	0xbdfe95df	-0.124309294
220	0xbf0a6006	-0.5405277
221	0x401f998b	2.4937465
222	0x3f84a3eb	1.0362524
223	0xbe9bc755	-0.30425516
224	0x40332fe3	2.7997978
225	0x3e5e8648	0.21730912
226	0x3f6d94bf	0.92805094
227	0x3fd6a117	1.6767911
228	0xc0904e37	-4.5095477
229	0x3e2ca29a	0.16858903
230	0x3f980fac	1.1879783
231	0xbfd57e44	-1.6679158
232	0xc0174e95	-2.3641713
233	0xbdcbee58	-0.0995757
234	0x3eba7198	0.3641479
235	0x3d364dd6	0.044507824
236	0xbfca6b9c	-1.581409
237	0x3f85534a	1.0416043
238	0xbf36b30a	-0.7136694
239	0x401b2e4e	2.4247012
240	0xbf985979	-1.1902305
241	0xbefa8918	-0.4893272
242	0x3e87d60d	0.26530495
243	0xbe539134	-0.2066086
244	0x40077981	2.116791
245	0xbe8bf13a	-0.2733248
246	0x4025791e	2.5855174
247	0x4015069a	2.328528
248	0xc00535de	-2.0814128
249	0xbf841209	-1.0318004
250	0x3db9f08d	0.090790845
251	0xc01a0d21	-2.4070513
252	0x3fde792a	1.7380726
253	0x40325f77	2.7870767
254	0x3f217092	0.63062394
255	0xbfe0c4b5	-1.756003

fc2.weight f4 [256, 512]
0	0xbd213bbc	-0.039363608
1	0xbf023076	-0.50855196
2	0xbe400f99	-0.1875595
3	0x3cb39886	0.021923315
4	0xbe9a595d	-0.30146304
5	0xbe59ba7f	-0.21262549
6	0xbc81ac73	-0.0158293
7	0xbfea7bda	-1.8319046
8	0x3e5f9e54	0.21837741
9	0xbf042a56	-0.516271
10	0x3f34b81c	0.7059343
11	0x3f2b64f2	0.66950905
12	0x3e07b720	0.1325345
13	0xbc0e56b8	-0.008687668
14	0xbc50df8e	-0.012748612
15	0xbe938b9c	-0.2881745
16	0xbf0a99e3	-0.5414106
17	0x3f95f5dd	1.1715657
18	0x3ee791cb	0.4522842
19	0xbfbeddb6	-1.4911411
20	0xbf14a90d	-0.5807045
21	0xbecb0ca3	-0.3965808
22	0x3f46154f	0.77376264
23	0x3ea8fd6a	0.3300584
24	0xbee2cc8e	-0.44296688
25	0x3f148c5c	0.5802667
26	0xbf26214a	-0.64894545
27	0xbe66d2bc	-0.22541326
28	0xbf5e19ba	-0.86758006
29	0x3f357d80	0.7089462
30	0xbf412983	-0.75453967
31	0xbdc42cba	-0.095788434
32	0x3f17f0fc	0.5935209
33	0x3e5e454b	0.2170612
34	0xbf204c3c	-0.62616324
35	0xbd554e0c	-0.052076384
36	0xbcfaf39a	-0.030633736
37	0x3f12c9db	0.57339257
38	0xbe4089af	-0.18802522
39	0x3a0a2e12	0.0005271147
40	0x3ec8c201	0.39210513
41	0xbe2f5168	-0.17120898
42	0x3d6817ea	0.05666343
43	0xbeeff71e	-0.46868223
44	0x3e9298af	0.28632113
45	0xbeca1126	-0.39466208
46	0xbd31ed33	-0.0434391
47	0xc00d51db	-2.208121
48	0x3ff92f16	1.9467494
49	0xbe45161d	-0.19246717
50	0xbdc14de6	-0.09438686
51	0xbc5cba71	-0.0134721855
52	0x3f257e7b	0.6464612
53	0x3f5355b0	0.82552624
54	0xbc52bcd7	-0.012862406
55	0x3c8f73b8	0.017511234
56	0xbbf99e18	-0.007617723
57	0xbf336d11	-0.700883
58	0x3eb291c0	0.34876823
59	0x3edff92a	0.43744785
60	0xbe8c3b1f	-0.27388856
61	0xbe068098	-0.13134992
62	0xbd7a89c1	-0.06116653
63	0xbe91dac4	-0.28487217
64	0xbed8ff11	-0.423821
65	0xbd3aba6c	-0.045587942
66	0x3c82e2f9	0.01597737
67	0x3cc5e5cb	0.024157425
68	0xbf22726a	-0.6345583
69	0x3e243dde	0.16039225
70	0x3f178482	0.59186566
71	0x3eb0e81f	0.34552094
72	0xbf0f58a0	-0.55994606
73	0xbd1b3084	-0.037888065
74	0x3c478d30	0.012179658
75	0x3c89973c	0.016795747
76	0xbf26eb05	-0.6520236
77	0xbe398ea5	-0.18120821
78	0x3f174a45	0.590977
79	0x3e0a1f50	0.13488507
80	0x3e8ae601	0.27128604
81	0x3cadeb6f	0.021230428
82	0xbc7834d1	-0.015149311
83	0xbfb17ca7	-1.3866166
84	0xbf73185f	-0.9495906
85	0xbf9e2e6b	-1.2357916
86	0x3f12366a	0.5711428
87	0xbcf14235	-0.029450515
88	0xbd9c66db	-0.076368056
89	0xbd1164bc	-0.03549646
90	0xbef9ca9f	-0.487874
91	0xbf67e005	-0.905762
92	0x3e46c421	0.19410755
93	0x3ebc290a	0.3675006
94	0x3cd47d86	0.02593876
95	0x3f2aa889	0.66663414
96	0xbe9eb051	-0.30993894
97	0x3d5bb2cf	0.053637322
98	0x3f64407e	0.8916091
99	0x3fe21bc8	1.7664728
100	0xbe74fdc3	-0.23924927
101	0xbdd68142	-0.10473873
102	0x3eac4008	0.33642602
103	0x3e99eb6a	0.3006242
104	0xbeb3d911	-0.35126546
105	0xbf3aad5e	-0.7292079
106	0xbff1356d	-1.8844429
107	0x3f3980d8	0.72462225
108	0x3faebd36	1.3651493
109	0xbedd06e9	-0.43169335
110	0x3e8e81d6	0.27833432
111	0xbe39b187	-0.18134128
112	0xbf0827f1	-0.53185946
113	0xbfc7059f	-1.554859
114	0x3f1921d1	0.59817225
115	0x3df7e926	0.121050164
116	0x3ca8fde9	0.020628886
117	0x3f3cd6a8	0.7376504
118	0xbe9c46da	-0.30522805
119	0x3f89a80e	1.0754411
120	0x3dabb2d1	0.08383716
121	0x3feff15c	1.8745532
122	0x3ee01b68	0.4377091
123	0x3e228082	0.15869334
124	0xbee55b6b	-0.4479631
125	0xbad2fda0	-0.0016097315
126	0x3fd14426	1.6348922
127	0x3f172fe9	0.5905748
128	0x3de8f7f7	0.113754205
129	0xbe70bb13	-0.23508863
130	0xbf77f152	-0.968526
131	0xbf7974e9	-0.97444016
132	0x3ee2a035	0.44262853
133	0xbfa81b2d	-1.3133293
134	0xbe90829a	-0.2822464
135	0x3f905e71	1.1278821
136	0x3f1e3a56	0.61807764
137	0xbf29a5c9	-0.66268593
138	0xbc94e5a2	-0.018175904
139	0xbe589ce7	-0.21153603
140	0xbc4a21aa	-0.012337128
141	0x3ce71e3a	0.028212655
142	0xbd587214	-0.05284317
143	0xbf45c1a3	-0.7724859
144	0xbd54ec94	-0.05198343
145	0xbf583ac4	-0.8446467
146	0xbcc29c4b	-0.023756167
147	0x3d80f5cc	0.06296882
148	0x3bc1bce8	0.005912412
149	0x3ec4d017	0.3844001
150	0xbd8c6187	-0.06854539
151	0x3bbe92a0	0.005815819
152	0x3f3157fa	0.69274867
153	0xbe8ad1b4	-0.27113116
154	0xbcb7b516	-0.022425216
155	0xbebe336d	-0.3714861
156	0xbe7c737a	-0.24653426
157	0xbda1eae5	-0.07906131
158	0x3d674395	0.056460936
159	0xbe7635f3	-0.24044017
160	0x3f1b7c90	0.6073694
161	0xbc9fd25e	-0.01950949
162	0xc0200580	-2.5003357
163	0xbf620708	-0.8829198
164	0x3f1e070f	0.6172952
165	0xbf954687	-1.1662148
166	0xbf424ac0	-0.7589531
167	0xbeca353b	-0.39493737
168	0xbf3b2964	-0.7311003
169	0xbd060b13	-0.032725405
170	0xbd9e6721	-0.07734514
171	0xbe66393d	-0.22482772
172	0xbc002da6	-0.007823383
173	0xbd989205	-0.07449726
174	0xbd2f135b	-0.04274307
175	0xbde5d5dd	-0.11222432
176	0xbd3f7ef7	-0.046751942
177	0x3ddc807c	0.10766694
178	0xbd4fe174	-0.05075212
179	0x3d9f272d	0.07771144
180	0x3e040e09	0.12895979
181	0xbe53ef98	-0.20696867
182	0xbf14efa9	-0.5817819
183	0xbe715f19	-0.23571433
184	0x3e82e161	0.25562575
185	0xbf306111	-0.6889811
186	0x3ec3e3b1	0.38259652
187	0x3f988a40	1.191719
188	0xbf490de9	-0.7853685
189	0xbe8b94f1	-0.2726207
190	0xbe5410f7	-0.20709597
191	0x3f383336	0.7195314
192	0x3f0e8a74	0.5568001
193	0xbec1d512	-0.37857872
194	0xbfb1c72c	-1.3888907
195	0x3eb7ffc3	0.35937318
196	0xbc433575	-0.011914601
197	0x3ce53a26	0.027981829
198	0xbd8fd0be	-0.07022236
199	0x3e91bfd4	0.28466666
200	0xbc2417c8	-0.0100154355
201	0xbe8f9a1c	-0.28047264
202	0xbea99be3	-0.33126745
203	0xbed4cb27	-0.41561243
204	0xbf8be9f5	-1.0930773
205	0x3eced8f9	0.40399912
206	0x3fa2782c	1.2692924
207	0xbe6bada0	-0.23015451
208	0x3e45bb1c	0.19309658
209	0xbdc3dd3a	-0.0956368
210	0xbdd4e20b	-0.10394677
211	0x3fc921ef	1.5713481
212	0x3f89e67b	1.0773462
213	0xbcad2421	-0.021135392
214	0x3f4353ed	0.76299936
215	0x3e08b2ff	0.13349532
216	0xbea79d7d	-0.32737342
217	0x3d427e63	0.047483813
218	0xbd0bfc53	-0.034176182
219	0x3d2e2789	0.042518172
220	0xbf624628	-0.883883
221	0x3e5e49b4	0.21707803
222	0xbe458bd5	-0.19291623
223	0x3cbe8b12	0.023259673
224	0xbf174a77	-0.59098
225	0xbe4674cd	-0.19380493
226	0x3f86fd81	1.0546113
227	0xbeaa3e6e	-0.33250755
228	0xbe8ef086	-0.2791788
229	0xbcd862e0	-0.026414335
230	0x3f652d24	0.89522004
231	0x3f245afb	0.64201325
232	0xbe9b0f0f	-0.30284926
233	0xbcaf2a4b	-0.021382472
234	0xbf91992d	-1.137487
235	0x3ddb360d	0.10703669
236	0xbe3b49a5	-0.18289812
237	0xbf61d8cf	-0.8822145
238	0xbf5a0f92	-0.8518001
239	0xbe79cb87	-0.24394046
240	0xbe55c26c	-0.20874947
241	0x3c3b9e48	0.011451311
242	0x3f060c9a	0.5236298
243	0x3f4d79af	0.802638
244	0x3f1d10da	0.6135384
245	0xbe40d072	-0.18829516
246	0x3fd950bb	1.6977762
247	0xbf363ff4	-0.71191335
248	0xbc81fdd1	-0.0158681
249	0xbfa21072	-1.2661269
250	0xbfc69b5f	-1.5516165
251	0x3cb0fadf	0.021604
252	0xbde13d7c	-0.10998055
253	0x3fe7ee18	1.8119535
254	0x3dd71c10	0.10503399
255	0xbee25232	-0.44203335

fc2.bias f4 [256]
0	0xbf7b4793	-0.9815609
1	0xbe365075	-0.1780413
2	0xbd5495cf	-0.05190068
3	0xbd3edf40	-0.046599627
4	0x3fc32bde	1.5247762
5	0xbd9324c8	-0.0718475
6	0xbd31e0e3	-0.04342736
7	0x3eb6eb38	0.35726333
8	0x3f0b370d	0.54380876
9	0xbd82fa3b	-0.06395384
10	0xbd3e2d37	-0.04642984
11	0xbc70bb16	-0.014693042
12	0xbd84f801	-0.064926155
13	0x3f73c06d	0.95215493
14	0x3a600875	0.0008546182
15	0xbd260c9b	-0.040539365
16	0x3fa8dbdf	1.3192099
17	0x400b9ff3	2.1816375
18	0xbcb7e15b	-0.022446325
19	0xbd13457f	-0.03595495
20	0xbd1449c7	-0.036203172
21	0xbd8b4927	-0.06801062
22	0xbd6f5870	-0.05843395
23	0xbc0f045a	-0.008729065
24	0xbd856f48	-0.06515366
25	0x4053baf7	3.3082864
26	0xbd284817	-0.041084375
27	0xbbd423d6	-0.0064739985
28	0x3f020041	0.5078164
29	0x40502940	3.2525177
30	0xbc6dade9	-0.014506795
31	0x3f85f168	1.0464296
32	0xbd0026be	-0.031286947
33	0x4023dd16	2.560369
34	0xbd77e03a	-0.060516573
35	0xbd846796	-0.0646507
36	0x3f18a3aa	0.5962473
37	0xbbdbf9a3	-0.0067131086
38	0x3f11047a	0.56647456
39	0xbcdf3fc7	-0.027252091
40	0x408f0e46	4.4704924
41	0xbd146e9f	-0.03623831
42	0x40b47956	5.6398115
43	0xbf0930c4	-0.53590035
44	0x3f22ec60	0.6364193
45	0xbb15291c	-0.0022760099
46	0xbd3fb054	-0.04679902
47	0x3e0c074a	0.13674656
48	0xbf66e539	-0.90193516
49	0xbe9c1712	-0.3048635
50	0x3e57026e	0.2099702
51	0xbc6f3e53	-0.014602262
52	0xbd510e6c	-0.051039144
53	0x40084791	2.129368
54	0x3f502052	0.81299317
55	0xbcccfafe	-0.025022026
56	0xbd9c5b6f	-0.07634627
57	0xbd6cc0d5	-0.057801086
58	0x3c4d13b8	0.012516908
59	0xbf0d96c8	-0.553082
60	0xbd923a76	-0.07140057
61	0xbcd548ed	-0.02603575
62	0xbd973b5e	-0.0738437
63	0xbe7748d3	-0.24148874
64	0xbd0955c5	-0.03352906
65	0xbd4863cc	-0.0489233
66	0x3e8635be	0.26212877
67	0xbd3e9b6d	-0.046534944
68	0x3f5980ad	0.8496197
69	0x401de261	2.466942
70	0xbd479272	-0.048723646
71	0xbdf38416	-0.11890428
72	0x3d860393	0.065436505
73	0x3f6dd82c	0.9290798
74	0xbc3046f1	-0.010759101
75	0x400cbd41	2.1990511
76	0xbe94988e	-0.2902264
77	0xbd335946	-0.04378631
78	0xbd73b74e	-0.059500985
79	0x3f112215	0.5669263
80	0x3f2e4603	0.6807558
81	0xbc0d74e4	-0.008633826
82	0xbd2ba083	-0.041901123
83	0x3e120104	0.142582
84	0x3fca808e	1.5820482
85	0xbd4a8b22	-0.049449094
86	0xbe97a1ae	-0.2961554
87	0x3f9829ff	1.1887816
88	0x40526191	3.287205
89	0xbe912dac	-0.28355157
90	0xc01047a9	-2.2543738
91	0x3eb82e95	0.3597304
92	0xbf350b3c	-0.7072027
93	0x3c7b7ccd	0.015349579
94	0xbd8c4f56	-0.0685107
95	0x3fc7de68	1.5614748
96	0xbc1cd0bd	-0.009571251
97	0x3ca9f688	0.020747438
98	0x3c4d78f5	0.012541045
99	0xc009b119	-2.1514342
100	0xc01582fe	-2.3361201
101	0x3f1dfdcc	0.6171539
102	0xbf1dd20f	-0.6164865
103	0xbd4aac56	-0.04948076
104	0x3f8c4398	1.0958128
105	0xbd69478d	-0.056953
106	0x4019b616	2.4017386
107	0x3f1cb655	0.61215717
108	0xbc7e6c06	-0.0155286845
109	0xbd0d6d80	-0.034528255
110	0xbd8b1a05	-0.06792072
111	0x3fec8312	1.84775
112	0xbc05d76f	-0.008169039
113	0x3ff2358c	1.8922591
114	0x3c0deec6	0.008662885
115	0xbc0ae678	-0.0084778
116	0x3e351c0c	0.1768648
117	0xbfdc4cd4	-1.7210946
118	0x3ee0c102	0.43897253
119	0xbcdc1076	-0.026863318
120	0xbc087def	-0.008330806
121	0x3f040df7	0.5158381
122	0xbdc37a02	-0.095447555
123	0xbbaa6b62	-0.0052007893
124	0xbca119d4	-0.019665636
125	0x3f292a0a	0.6607977
126	0x406086db	3.508231
127	0xbd99b4b8	-0.075051725
128	0x3f9555b1	1.1666776
129	0x3e5e5e8a	0.21715751
130	0xbd413f50	-0.04717952
131	0xbd958385	-0.07300476
132	0x3ce214da	0.027597833
133	0xbd56e7cb	-0.05246715
134	0x40915c6e	4.542533
135	0xbd9bb84a	-0.0760351
136	0xbd1eca72	-0.038767286
137	0xbd7b9928	-0.061425358
138	0x3f0b51b0	0.5442152
139	0xbbd77b95	-0.0065760114
140	0xbd6ccb3a	-0.057811
141	0x3e8478bb	0.2587336
142	0xbc92e8f9	-0.017933356
143	0xbd91ff80	-0.07128811
144	0xbd071185	-0.032975692
145	0x409039df	4.5070643
146	0xbbe8ddbf	-0.0071065123
147	0xbcb3e602	-0.021960262
148	0x3e0240cf	0.12720035
149	0xbc40e649	-0.011773654
150	0xbd6568f9	-0.056008313
151	0x3e97456e	0.29545158
152	0xbd662d69	-0.05619565
153	0x3f165bc7	0.5873379
154	0xbed61fce	-0.4182114
155	0xbccda747	-0.025104178
156	0xbcc86f81	-0.024467232
157	0x3e679964	0.22617108
158	0x40523e11	3.2850382
159	0xbf9208bc	-1.1408916
160	0xbba35f39	-0.0049857167
161	0xbd8c7c50	-0.06859648
162	0x3fcbae90	1.5912647
163	0xbd9eca09	-0.07753379
164	0x3e923757	0.28557846
165	0xbcd4a5ad	-0.025957907
166	0xbadab0e8	-0.0016684802
167	0x3f9b3a36	1.212714
168	0xbd06655e	-0.032811515
169	0x40375ca9	2.8650305
170	0xbcbee907	-0.023304475
171	0x3e0c39b6	0.1369389
172	0xbe9c0060	-0.30469036
173	0xbc1895d2	-0.009313064
174	0xbf246d6d	-0.6422947
175	0xbf0bf8ef	-0.5467672
176	0x40866a10	4.200447
177	0xbd2bf74f	-0.0419839
178	0xbc43d8d0	-0.011953548
179	0xbd6d7da0	-0.057981133
180	0x3f5e5912	0.8685466
181	0xbd4a9d21	-0.049466256
182	0xbf97287e	-1.1809232
183	0x3f0fd38e	0.5618218
184	0x3a653c47	0.0008744639
185	0xbd91603e	-0.07098435
186	0xbd88e4c9	-0.06684262
187	0x403d8d17	2.9617364
188	0x3f88b9cf	1.0681704
189	0xbce58050	-0.028015286
190	0x3e91970b	0.2843555
191	0xbeb6269c	-0.35576332
192	0xbd6f51ba	-0.05842755
193	0xbd87cde0	-0.066310644
194	0x3f843554	1.0328774
195	0x40a58ec6	5.1736784
196	0x3c099f97	0.008399866
197	0x3c2464bd	0.0100337835
198	0x3f47cbb6	0.78045213
199	0xbea589f3	-0.3233181
200	0xbb7b3a35	-0.0038334255
201	0xbfa406ec	-1.2814612
202	0xbf5bf081	-0.85913855
203	0xbdf65007	-0.12026983
204	0xbd50e21b	-0.05099688
205	0xbd0d1597	-0.034444418
206	0xbd914e7d	-0.070950486
207	0xbd448374	-0.047976926
208	0x40815a93	4.0423064
209	0xbd48b8ef	-0.04900449
210	0xbd74ffb4	-0.05981417
211	0x3f0766b8	0.5289111
212	0x40073af5	2.1129735
213	0xbce3df63	-0.02781648
214	0x3fbc6ca6	1.4720657
215	0x403beb7f	2.9362485
216	0xbd2df26f	-0.04246753
217	0xbd901d29	-0.07036812
218	0x4035ad46	2.8387008
219	0xbecf87d3	-0.40533313
220	0xbd5e3257	-0.054247227
221	0x40ad9c09	5.4252973
222	0x3fa91e79	1.3212425
223	0x3dcaca7a	0.099019006
224	0x3fb0a042	1.3798907
225	0x3e97db61	0.2965956
226	0x3ee0f953	0.4394022
227	0x3f12faeb	0.5741412
228	0xbd9d5731	-0.07682646
229	0xbd221419	-0.039569948
230	0xbd675ef1	-0.056487028
231	0xbc1fa596	-0.009744069
232	0x3ec49fc9	0.38403156
233	0xc0100c97	-2.2507684
234	0xbd3cd6b9	-0.046103213
235	0x3fb38fd4	1.4028268
236	0x3f33ab1b	0.7018296
237	0xbedd8e3d	-0.43272582
238	0x3ccfed95	0.025381843
239	0x3f0ed025	0.55786353
240	0xbf860acb	-1.0472044
241	0x3c4347ea	0.011919001
242	0x3c0a8283	0.008453968
243	0xbcab0c23	-0.02087981
244	0xbd8658e2	-0.06559922
245	0x3facc51d	1.3497654
246	0x3d2ed180	0.042680264
247	0xbd8a013f	-0.06738519
248	0xbc855deb	-0.016280135
249	0xbf6584bd	-0.8965567
250	0xbf962863	-1.1731075
251	0xbf8ce356	-1.1006877
252	0x3b891559	0.004183453
253	0xbe5c385a	-0.21505871
254	0x3c34c2ea	0.011032799
255	0x3f9ca3cb	1.2237486

fc3.weight f4 [128, 256]
0	0x3ef650d7	0.4810855
1	0x3d8076a1	0.06272627
2	0xbcfcebb4	-0.03087411
3	0xbfb3cb82	-1.4046481
4	0x3e1945fa	0.149681
5	0x3c35d7fb	0.011098857
6	0xbd3ffc20	-0.046871305
7	0x3f04a40d	0.5181282
8	0x3f54f7b2	0.83190453
9	0xbd37e6cc	-0.04489784
10	0xbcd4d754	-0.025981583
11	0xbd44894c	-0.0479825
12	0xbd2621ce	-0.040559582
13	0x3ef7e87a	0.48419553
14	0xbc5b8f88	-0.01340092
15	0x3c556628	0.013024844
16	0xbfccb453	-1.599253
17	0x3ef7eb5f	0.4842176
18	0x3b57ec20	0.0032947138
19	0xbcbc9e43	-0.023024684
20	0x3cfbf178	0.03075479
21	0x3c3c0a90	0.011477128
22	0x3c76e0c8	0.01506824
23	0xbc963fc4	-0.018340953
24	0xbc1f2070	-0.009712324
25	0xbe139e4f	-0.14415859
26	0x3cf86294	0.030320443
27	0x3d2541e2	0.040346034
28	0xbc31f51f	-0.010861664
29	0xbf30bade	-0.69035137
30	0xbd587b04	-0.05285169
31	0x3d2e04f0	0.042485178
32	0x3cc71dd4	0.024306215
33	0xbf6aa000	-0.9165039
34	0x3cb3be5c	0.021941356
35	0x3b5be440	0.0033552796
36	0x3e22c685	0.15896042
37	0xbc5ce8c8	-0.013483234
38	0xbe7c57c4	-0.24642855
39	0xbd26655a	-0.040624
40	0xbe065017	-0.1311649
41	0x3d1e3528	0.038624913
42	0x3e2c01f7	0.16797625
43	0xbf9cf6bb	-1.2262796
44	0xc00f36eb	-2.237727
45	0xbc445338	-0.0119827315
46	0xbcfaa88c	-0.030597948
47	0xbe603f9a	-0.21899262
48	0xbe9d2e42	-0.30699354
49	0xbcc77014	-0.024345435
50	0xc00905ed	-2.1409867
51	0x3d28407c	0.041077122
52	0xbcd4c5ac	-0.025973164
53	0x3e185e3a	0.14879695
54	0xbec2649e	-0.3796739
55	0x3cafd000	0.021461487
56	0x3f6ea617	0.93222183
57	0xbc1f03c8	-0.009705491
58	0xbb185840	-0.002324596
59	0x3e0ce85e	0.13760516
60	0x3cbc3c52	0.022977982
61	0x3d0ebba2	0.03484691
62	0xbceff6f3	-0.02929256
63	0xbf4e6a42	-0.80630887
64	0xbd7578a8	-0.05992952
65	0xbb88d3e0	-0.004175648
66	0xbe88c2d0	-0.2671113
67	0x3d185306	0.037188552
68	0xbfc7b205	-1.5601202
69	0x3eb705f4	0.3574673
70	0x3cf64920	0.030064166
71	0x3e3849f5	0.17996962
72	0x3f81403f	1.0097731
73	0xbf4c0128	-0.79689264
74	0x3d37af1e	0.04484474
75	0xbfd24367	-1.642682
76	0xbf51942b	-0.8186671
77	0x3d0ec8ce	0.03485947
78	0x3d642986	0.055703662
79	0x3f11f196	0.57009256
80	0xbe017ceb	-0.12645309
81	0x3d35cee8	0.044386774
82	0xbd0f8c6e	-0.035046034
83	0xbd433daf	-0.047666248
84	0xc02e98ca	-2.7280755
85	0x3d4560cc	0.048188016
86	0x3ee4f2fe	0.44716638
87	0xbe3fba3f	-0.18723391
88	0x3dfce2d8	0.123479545
89	0xbe913776	-0.28362626
90	0x3e0918ba	0.13388339
91	0x3f047db4	0.5175431
92	0xbea2c3c0	-0.3178997
93	0x3c2295e0	0.009923428
94	0xbd3d77c2	-0.046256788
95	0x3e27db7b	0.16392319
96	0xbd5086d6	-0.05090984
97	0x3c23f6f0	0.010007605
98	0x3d6dca34	0.058054164
99	0xc01dd401	-2.4660647
100	0xc0193c5e	-2.3943095
101	0xbeaa1e5d	-0.3322629
102	0xbfe5f286	-1.7964637
103	0xbbb707d0	-0.005585648
104	0xbdd49878	-0.103806436
105	0xbd0a9b24	-0.03383936
106	0x3f05ace3	0.5221693
107	0x3eb0b0e8	0.3450997
108	0xbc9d1ecc	-0.019179724
109	0xbc3bff10	-0.011474386
110	0x3f94a92a	1.1614125
111	0xbf08fd97	-0.5351195
112	0xb8772000	-5.891919e-05
113	0xbfe9f47b	-1.8277735
114	0x3d1c79ae	0.03820198
115	0xbcbe366e	-0.023219313
116	0xc08ae5eb	-4.340566
117	0xc01ca1a5	-2.447366
118	0x3f1e3a41	0.6180764
119	0x3d557d62	0.052121527
120	0x3cb063f4	0.021532036
121	0xbe80ba30	-0.2514205
122	0x3c91941c	0.01777082
123	0x3d29e634	0.041479304
124	0x3d5c882a	0.053840794
125	0xbfc9cb51	-1.5765172
126	0xbf32fcfe	-0.69917285
127	0x3d4fd304	0.05073835
128	0xbf692990	-0.91079044
129	0xbf2e6050	-0.6811571
130	0xbcd65e7c	-0.0261681
131	0x3f8574a0	1.0426216
132	0x3e441715	0.1914943
133	0x3d5402c2	0.051760443
134	0x3cbd6906	0.023121368
135	0xbce3f738	-0.027827844
136	0x3c86349c	0.016382508
137	0xbf18f791	-0.59752756
138	0xc0667a77	-3.6012247
139	0x3d4694d5	0.04848178
140	0xbd6b4b40	-0.05744481
141	0x3f139d09	0.5766149
142	0xbd57366d	-0.05254214
143	0xbd672d37	-0.056439605
144	0xbd6ffb45	-0.05858924
145	0x3f1a411c	0.602556
146	0xbb766000	-0.0037593842
147	0xbd9f6b76	-0.077841684
148	0x3ef966e6	0.48711318
149	0xbc71db20	-0.014761716
150	0xbc47f8c0	-0.012205303
151	0xbeaf18ce	-0.34198612
152	0x3d7ddb2a	0.06197659
153	0xbe16a0e1	-0.14709808
154	0xbeb482db	-0.35256085
155	0xbd3f1a2c	-0.04665582
156	0xbd06e386	-0.032931827
157	0xbfb4effb	-1.4135736
158	0xbe2c542e	-0.16828987
159	0x3ed86db5	0.422712
160	0xbd70d420	-0.05879605
161	0x3c853fa0	0.01626569
162	0xbe2e68ae	-0.1703212
163	0x3d1ca5c0	0.03824401
164	0x3b04bb20	0.0020253137
165	0xbbb5be54	-0.0055463705
166	0x3d6a9577	0.057271447
167	0xbfe05f02	-1.7528994
168	0xbbf7eb50	-0.007565893
169	0x3f075121	0.5285817
170	0x3cb6ecf8	0.022329792
171	0xbed644db	-0.41849408
172	0x3ee009fd	0.4375762
173	0xbce6dc3c	-0.028181188
174	0x3f8528b1	1.0403043
175	0xbf5b89ed	-0.85757333
176	0xbe4c843a	-0.19972315
177	0x3cdf3680	0.027247667
178	0xbd6da958	-0.058022827
179	0x3b3cd020	0.0028810576
180	0xc046c5ce	-3.105823
181	0x3ced133d	0.028939838
182	0xbb927508	-0.0044695176
183	0x3f13414f	0.5752153
184	0xb9b72200	-0.00034929812
185	0xbc22f7c8	-0.009946771
186	0xbd6280d0	-0.055298626
187	0x3da48eba	0.080350354
188	0xbd420b5c	-0.047374114
189	0xbc1e2ef8	-0.009654753
190	0x3f3311e4	0.69949174
191	0xbf02411f	-0.50880617
192	0x3d03b402	0.03215409
193	0x3cca41a8	0.02468951
194	0xbdc58f0d	-0.096464254
195	0xbec98c34	-0.3936478
196	0xbbca5b53	-0.0061754375
197	0xbd3d75ee	-0.046255045
198	0x3ee75aea	0.4518655
199	0xbf191023	-0.5979025
200	0x3d648534	0.055791095
201	0xbeafb69b	-0.34319004
202	0xbd61beca	-0.05511359
203	0xc00b4fda	-2.1767488
204	0xbd6b1240	-0.05739045
205	0xbd61d76a	-0.055137075
206	0x3b2b7d40	0.0026167184
207	0xbc32f659	-0.010922992
208	0xbe4ce511	-0.20009257
209	0xbca59cc0	-0.020216346
210	0x3bd37aab	0.006453832
211	0xbf3e2a87	-0.7428364
212	0xbf49d32a	-0.78837836
213	0x3d500966	0.050790213
214	0xbedff2e0	-0.43739986
215	0x3f5bc728	0.85850763
216	0x3d5ed7bc	0.05440496
217	0xbd7c3eb5	-0.06158324
218	0x3eab03ee	0.33401436
219	0xbf162937	-0.5865664
220	0xbcc2ad1b	-0.023764184
221	0xbe6ef3fa	-0.23335257
222	0xbe446135	-0.19177707
223	0xc007a177	-2.11923
224	0xbedfb3ea	-0.4369195
225	0xbf8f8618	-1.1212797
226	0xbef25787	-0.47332403
227	0x3e03ed79	0.12883557
228	0x3b36125d	0.0027781941
229	0x3c99d5fc	0.018778794
230	0xbc082fd8	-0.008312188
231	0x3d7ccc78	0.061718434
232	0xc00ac6e6	-2.1683898
233	0xbfef785a	-1.8708603
234	0xbd666f8e	-0.05625873
235	0xbf69202d	-0.9106472
236	0xbf2d1a76	-0.676185
237	0xbfdebc0e	-1.740114
238	0x3eaea732	0.34111935
239	0xbfb2d04d	-1.3969818
240	0x3e5ae4b3	0.21376304
241	0xbd73e023	-0.059539925
242	0xbc19a0a8	-0.009376682
243	0x3d5aac00	0.05338669
244	0xbd588f26	-0.052870892
245	0xbf24344d	-0.64142305
246	0x3daabb29	0.08336479
247	0x3d3f9ef6	0.046782456
248	0xbd43d4c3	-0.047810327
249	0xc00b9cab	-2.1814373
250	0xbed2e3b6	-0.41189355
251	0xbf877ec7	-1.0585564
252	0x3cc8e460	0.02452296
253	0xbf26e12f	-0.6518735
254	0x3ca86e50	0.020560414
255	0xbe8bfae2	-0.27339846

fc3.bias f4 [128]
0	0x3eccb823	0.39984235
1	0x409a8643	4.8288894
2	0x408e1bf1	4.440911
3	0x3f49e541	0.7886544
4	0xbf548ba1	-0.83025557
5	0xbe9477ad	-0.28997555
6	0x3e23cf30	0.15997005
7	0x405b8792	3.4301496
8	0x400b4e7f	2.176666
9	0xbf6136e7	-0.879744
10	0xbf9b31d8	-1.2124586
11	0x3f22b7c7	0.6356167
12	0xc03fbe5a	-2.9959931
13	0xbdc31a4b	-0.09526499
14	0xbe378af8	-0.17924106
15	0x3ebe605e	0.37182897
16	0x3e193ffd	0.14965816
17	0x3fc2ddf8	1.522399
18	0x3eb3ceac	0.35118616
19	0x3f7cfcd7	0.98823303
20	0xbf2eb389	-0.682427
21	0xbe46cd19	-0.19414176
22	0x3f65c264	0.8974974
23	0x402ce267	2.7013185
24	0x3f11436d	0.5674351
25	0xbd454605	-0.04816248
26	0x3ec8a55e	0.39188665
27	0x3fd12b79	1.6341392
28	0xc027d009	-2.6220725
29	0x3eaf4be7	0.34237596
30	0x3f28e5f5	0.65975887
31	0xbeedaa73	-0.46419105
32	0xbf2c5d5a	-0.67329943
33	0x3fdde40b	1.7335218
34	0xbce46600	-0.027880669
35	0xbf379d39	-0.7172428
36	0x3fc68e89	1.5512248
37	0x3fbe111b	1.484897
38	0x403d9797	2.9623773
39	0x3f21b79e	0.631708
40	0xbc6ad5f7	-0.01433324
41	0x3ff50896	1.9143245
42	0xc001314c	-2.0186338
43	0xbe57f25f	-0.21088551
44	0x3fbe792c	1.4880729
45	0x3f97b738	1.1852789
46	0x4008d0c6	2.1377425
47	0x3f1b9215	0.6076978
48	0x3d8f99de	0.0701177
49	0x402c3afb	2.6911
50	0x3f263a0b	0.64932317
51	0xc0d84224	-6.758074
52	0x4003d669	2.0599616
53	0xbf5b2bcf	-0.8561372
54	0x40f14950	7.5401993
55	0x3d26d180	0.04072714
56	0x3fda745b	1.7066759
57	0x408b9cff	4.3629146
58	0xbe3e8481	-0.18605234
59	0x3dfb79ab	0.12279066
60	0x40f57bba	7.6713533
61	0x3fff8cab	1.9964803
62	0xbe84f587	-0.25968572
63	0x3febd9fe	1.8425901
64	0xbecf7b6c	-0.4052385
65	0x401b1d9e	2.4236827
66	0x3f2ce297	0.6753325
67	0x40fb34c0	7.850189
68	0x400f6bd4	2.2409563
69	0x3f1b23c8	0.6060147
70	0x40a547f0	5.1650314
71	0x3fe70824	1.8049359
72	0x3f10b65b	0.5652825
73	0xbdd1d5a7	-0.10245829
74	0xc0846ba3	-4.1381392
75	0x3eaa88c4	0.3330747
76	0x40c7ed22	6.247697
77	0x3f989c30	1.1922665
78	0x3d3bdb51	0.045863453
79	0xc02d222c	-2.7052107
80	0x40a00e9f	5.001785
81	0x3fdd9864	1.7312131
82	0xbfc08d0b	-1.5043043
83	0xbf842668	-1.0324221
84	0xbf8350b8	-1.0259008
85	0x3c429a4d	0.0118776085
86	0xbfc5df13	-1.5458702
87	0x40996593	4.793649
88	0x402bfca6	2.6872954
89	0x3fd59918	1.6687346
90	0xbd7ee0c8	-0.062226087
91	0xbfb46449	-1.4093105
92	0x401782e3	2.3673637
93	0xbda75aac	-0.08171591
94	0xbdf41898	-0.119187534
95	0x3f9663cf	1.1749209
96	0x3e52193d	0.2051744
97	0xbe299c27	-0.16563474
98	0x40192f13	2.3934982
99	0xbe1d60b7	-0.15368925
100	0x407c995c	3.9468603
101	0xbd960627	-0.07325392
102	0x3fe2d8ec	1.7722449
103	0xbe4f6bc8	-0.20255959
104	0xbdaaaf47	-0.08334213
105	0xbe010e9e	-0.12603232
106	0xbdcd887c	-0.10035798
107	0xbd2af47c	-0.041737065
108	0x40d40b40	6.6263733
109	0x4029d8b6	2.653852
110	0x40185c87	2.3806474
111	0xbea3579c	-0.31902778
112	0xbf885688	-1.0651407
113	0x3e80ae4a	0.25132972
114	0x40069d7d	2.1033623
115	0xbdee8aab	-0.116475426
116	0xbfb42503	-1.4073795
117	0x3ee5b980	0.44868088
118	0x3e844f4b	0.25841746
119	0x408400cc	4.1250973
120	0xc03fc4da	-2.9963899
121	0x401a90a2	2.4150777
122	0xbe62eff8	-0.22161853
123	0xc046e2b7	-3.1075876
124	0x3f1eb91d	0.6200121
125	0xbea638b3	-0.32465133
126	0x3fe2f996	1.7732418
127	0x400818c2	2.126511

fc4.weight f4 [3, 128]
0	0x3eebca67	0.46052858
1	0x3eb9427c	0.36183536
2	0xbd527291	-0.05137879
3	0x3f0d87e2	0.55285466
4	0xbe68a1d8	-0.22717988
5	0xbf21d388	-0.63213396
6	0x40122dc8	2.2840443
7	0x3d994d61	0.07485462
8	0x3e05c719	0.13064231
9	0xbf8aef96	-1.0854366
10	0xc01d9da8	-2.4627476
11	0x3f2a51a1	0.66530806
12	0xbe8d5e4f	-0.27611014
13	0xbc23855e	-0.009980528
14	0xbe0f3e1b	-0.13988535
15	0xbfd54bdd	-1.6663777
16	0xbd226e4d	-0.039655972
17	0x3dcf0885	0.10109047
18	0xbf31f178	-0.6950908
19	0x3f6f3d71	0.9345313
20	0xbe9ab66e	-0.30217308
21	0xbfc9bbf9	-1.576049
22	0x3f018fcb	0.50610036
23	0xbea1ffbc	-0.31640422
24	0xbd14dce6	-0.036343478
25	0xbeefd500	-0.46842194
26	0x3e5f29b5	0.21793254
27	0x3ecdee0a	0.40220672
28	0xbe479c84	-0.194933
29	0xbfaf882c	-1.3713431
30	0x3ddc1ce2	0.107476965
31	0x3f20ccc8	0.6281247
32	0xbfe60957	-1.79716
33	0x3e9d7bcb	0.3075851
34	0x3c87925a	0.016549278
35	0xbfbab800	-1.4587402
36	0x3ecaf74b	0.39641795
37	0x3f579aca	0.84220564
38	0xbe6782b5	-0.22608455
39	0x3e0fa2ef	0.14026998
40	0x3d15bddc	0.036558017
41	0x3e9795b9	0.29606417
42	0x3f316492	0.69294083
43	0x3ed9f8be	0.42572588
44	0x3f926ad4	1.1438851
45	0x3f038e92	0.5138942
46	0xbe28dc3c	-0.16490263
47	0x3f9b4fa5	1.213368
48	0x3f045721	0.5169545
49	0x3e88f140	0.2674656
50	0xbe1ce86e	-0.1532304
51	0xbe0f33c5	-0.13984592
52	0x3ef2867d	0.4736823
53	0x3f1fee22	0.62472737
54	0x3d5efd91	0.05444104
55	0xbfdb1e54	-1.711863
56	0x3f00ddfb	0.50338715
57	0x3d9483eb	0.07251724
58	0xbe269977	-0.1626948
59	0x3f2b26eb	0.6685626
60	0x3e8150e0	0.25257015
61	0x3c6e7d98	0.014556311
62	0xbf865141	-1.0493547
63	0x3ed572a6	0.41689032
64	0xbeb4c81c	-0.3530892
65	0x3f13977b	0.57653016
66	0x3f56b3a6	0.8386787
67	0x3eeee863	0.46661672
68	0x3cc9df53	0.024642622
69	0x3ec09710	0.37615252
70	0x3e1daa0f	0.15396903
71	0xbe404ec9	-0.18780054
72	0x3f872da3	1.0560802
73	0xbac2314e	-0.0014815719
74	0xbe121d89	-0.1426908
75	0x3fbba701	1.466034
76	0x3de6e308	0.112737715
77	0x3ebf4cb5	0.3736321
78	0x400805dc	2.1253576
79	0x3cbfb576	0.023401957
80	0xbf2b88ea	-0.6700579
81	0x3f1aa226	0.6040367
82	0xbd3bb593	-0.04582746
83	0xbf086dbb	-0.53292435
84	0x3e6431ca	0.22284618
85	0xbde7b686	-0.113141105
86	0x3e746385	0.23866089
87	0x3f3b952e	0.73274505
88	0x3e310c03	0.17289738
89	0x3f2dba62	0.6786252
90	0x3d56c453	0.052433323
91	0xc0358619	-2.8363097
92	0x3d2b0c93	0.04176004
93	0xbcce39aa	-0.02517398
94	0x40035568	2.0520878
95	0x3f2b03b7	0.66802543
96	0xbf05f1df	-0.5232219
97	0x3f37422c	0.71585345
98	0x3d971491	0.073769696
99	0x3ecff54e	0.4061684
100	0xbdc4ab33	-0.09602966
101	0x3f391e29	0.72311646
102	0x3e0a95c6	0.13533697
103	0x3efe2b47	0.49642393
104	0xbc70cc0b	-0.014697085
105	0xbd35df22	-0.04440225
106	0xbbd8dd43	-0.0066181733
107	0xbbb868b5	-0.0056277164
108	0x3da89ac6	0.08232646
109	0x3e8f905b	0.28039822
110	0xbe94c2d8	-0.29054904
111	0x3ff05cf4	1.8778367
112	0xbecbb819	-0.39788893
113	0xbf90c245	-1.1309286
114	0x3e5a6545	0.21327694
115	0xbc0d20f0	-0.00861381
116	0xbe31aafa	-0.17350379
117	0x3db5de8a	0.088803366
118	0x3c29fb02	0.010374786
119	0x3ddc1772	0.10746659
120	0xbef8a847	-0.48565885
121	0x3e75e0d6	0.2401155
122	0x3ecdc688	0.4019053
123	0x3ed67d36	0.41892403
124	0x3fb82176	1.4385211
125	0x3f23c856	0.63977563
126	0x3e0bd7ea	0.13656583
127	0x3ee9e5f0	0.4568324
128	0x3e940129	0.28907135
129	0x3f14f219	0.5818191
130	0x3e00585e	0.1253371
131	0x3f1b7f46	0.6074108
132	0xbe7e0b92	-0.24809101
133	0x3b6037df	0.003421299
134	0x4009364c	2.143939
135	0x3dcecdff	0.100978844
136	0x3d733bd8	0.059383243
137	0xbc54e598	-0.012994193
138	0xbe887bf2	-0.26657063
139	0x3f3ecd51	0.7453204
140	0xbd4eda27	-0.050501015
141	0x3d054a18	0.032541364
142	0x3dee160b	0.11625298
143	0x3e371461	0.17878868
144	0x3e8f6c6c	0.28012407
145	0x3eb05e43	0.34446916
146	0x3ca1020e	0.0196543
147	0x3e1ad168	0.15118945
148	0xbe90d99c	-0.28291023
149	0x3ed37538	0.41300368
150	0x3f0598d6	0.52186334
151	0x3f251be1	0.64495665
152	0xbfc4e03d	-1.5380932
153	0x3e44093f	0.19144152
154	0x3e3c5bdc	0.18394417
155	0x3f43c12d	0.7646664
156	0xbdf03af7	-0.11729997
157	0x3e24eef7	0.16106783
158	0xbf0e7d58	-0.5566001
159	0xbeb8a017	-0.3605964
160	0x3f65b9d7	0.89736694
161	0x3eb2c762	0.34917742
162	0xbd420909	-0.047371898
163	0xc001e2a4	-2.029458
164	0x3eb1c89b	0.34723362
165	0x3f4b4f32	0.7941772
166	0x3bc63fcf	0.006050087
167	0x3e8cdd8f	0.27512786
168	0xbd7102c3	-0.058840524
169	0x3ec345e5	0.38139263
170	0xbe3d58e0	-0.18490934
171	0xbf1113e9	-0.56671005
172	0x3f91c232	1.1387389
173	0x3f77a757	0.96739715
174	0x3e7bf66e	0.24605724
175	0x3f625af3	0.8842003
176	0xbf5b3224	-0.85623384
177	0x3e94dd6d	0.29075184
178	0x3e1c3665	0.15255125
179	0xbe20c7da	-0.15701237
180	0x3ece0af9	0.40242746
181	0x3eeea2d5	0.46608606
182	0x3e3bb908	0.18332303
183	0x3e803338	0.25039077
184	0x3f30e721	0.69102675
185	0x3da544c2	0.08069755
186	0x3e945831	0.28973535
187	0x3f39fe62	0.7265378
188	0x3eadc9f7	0.3394315
189	0x3f046b17	0.51725906
190	0x3f861230	1.04743
191	0x3ed1e955	0.4099833
192	0x3f2190ae	0.6311139
193	0x3ead474e	0.33843464
194	0x3f5e42df	0.8682079
195	0x3ebf42e1	0.37355712
196	0x3e925e13	0.28587398
197	0x3f80e4f8	1.0069876
198	0x3e141ebb	0.14464848
199	0xbe806773	-0.25078925
200	0xbfd6fc74	-1.6795793
201	0x3cbedad5	0.023297707
202	0xbe82ab3a	-0.2552126
203	0x3fb28ef9	1.3949882
204	0x3de7cdf9	0.11318583
205	0x3f0942fb	0.5361783
206	0x400ff42a	2.2492776
207	0xbe642e32	-0.22283247
208	0xbf104ba2	-0.56365407
209	0x3f25b6c0	0.6473198
210	0xbe800b44	-0.25008595
211	0xbf61fae4	-0.88273454
212	0xbf320a99	-0.6954742
213	0x3cf55529	0.029947834
214	0xbe8c64d5	-0.2742068
215	0x3edbe035	0.42944494
216	0x3ece7fec	0.40331972
217	0x3f2f9240	0.68582535
218	0x3c10a034	0.008827258
219	0x3f00ccf2	0.5031272
220	0x3dfd0445	0.1235433
221	0x3be2d4f3	0.006922358
222	0x401b3d0d	2.4256012
223	0x3e6ae5bb	0.22939198
224	0xc036dd59	-2.85726
225	0xbe321b06	-0.17393121
226	0x3e265f53	0.16247301
227	0xbe472440	-0.19447422
228	0x3eebdcb0	0.4606681
229	0x3fc6b1cd	1.552301
230	0xbe17abc7	-0.14811622
231	0x3f9126a8	1.1339922
232	0xbc39eb67	-0.011347628
233	0x3cfa8bc6	0.030584227
234	0xbc4dd6de	-0.012563435
235	0x3c72445a	0.014786804
236	0x3bbebe39	0.005821016
237	0x3d697f01	0.057005886
238	0x3eb497aa	0.3527196
239	0xbf0bd1ef	-0.5461721
240	0x3e686aa7	0.22696935
241	0x3f94aa02	1.1614382
242	0x3e447ba8	0.19187796
243	0xbd5910ee	-0.05299466
244	0xbe88d9a7	-0.26728556
245	0xbe21b190	-0.15790391
246	0xbe230b70	-0.15922332
247	0x3e16320e	0.14667532
248	0xbf4ee6ee	-0.8082112
249	0xbfd414f6	-1.6568897
250	0x3f9c0309	1.2188426
251	0xbf0b597c	-0.5443342
252	0xbfec8347	-1.8477563
253	0xbd9d4ca2	-0.07680632
254	0x3e47a30a	0.19495788
255	0x3eda5b17	0.4264762

fc4.bias f4 [3]
0	0x40b3b0c4	5.615328
1	0x40b7570e	5.729377
2	0x40bf2e2c	5.974386
